mlp.pth (torch, 25079 bytes, 6 tensors)

fc1.weight f4 [50, 53]
00000000: ba21 42be 1f8e 553e c6c4 7dbe e1c0 8a3e
00000010: a8c7 ce3d c171 e63d afca bd3e 6daa f03d
00000020: d328 0dbe fe79 35be 9c95 173e 6a23 86be
00000030: c26f 19bd ce87 8f3e 2b58 3bbe 4fcd 36bd
00000040: a9a5 91be 2542 bebc 2dd7 0abd 6454 e4be
00000050: d697 3fbd a500 c73c 4dba 583c bc70 84bd
00000060: 0637 73bd 8d74 ff3d 1bd5 9b3d e3d1 4c3d
00000070: 8aed 08be a6c8 d2bd 4a8a 13bd 4501 943d
00000080: 9cc1 65bc 642e 96bd e658 88be 8d6c 58be
00000090: fb02 633e 53d2 e6bd 5d5b 063e ee22 2f3e
000000a0: 0966 b1bd 40a8 c23e b923 95bd 4126 633d
000000b0: 24be 773e 44e0 a9bc dce2 f83b 039a 1a3c
000000c0: 6109 033d d846 283e 459b 683f 5633 47bd
000000d0: fa21 16bf ec71 dcbd d96a e73e cb1c 903e
000000e0: 457a 3b3d 0c50 c8be d6aa 95bd aae1 813e
000000f0: 4e73 033e 613b c93d 563f d4be 11c0 d93e
00000100: d49e 863d 1c6c 62bd 6e4c 02be 995c 413e
00000110: e38d 03bf 7991 c53d f735 4e3f 4e2a 9ebe
00000120: 792e 04bf 099a 213e d6b3 c33c 4d81 34be
00000130: 1f61 e4bd 8ef2 053f 4bc3 723e d872 073e
00000140: 2c7e 12bf f73b a7bd 2176 bd3e 08ce 943e
00000150: 872f 1abe d10e b7be 943c 27bd 63b6 603e
00000160: ee1d 48bc 813b 42be 80a3 923e 55d1 313e
00000170: 6ab2 813e 85a6 37be b7a4 8d3e ce6a b63e
00000180: f6b3 043f 7fa4 aebf 807d 5a3e 1200 913d
00000190: 84b4 30bc 0387 5dbe e425 04bf 1f77 63bf
000001a0: 8394 623e 9019 9cbf 1535 063e 9ec9 e23e
000001b0: bccf c3be d64d 623c ba51 c1bd 1f69 133e
000001c0: 38d6 5dbe 4c2e b53d dab8 c63e f4fa 0abf
000001d0: 3395 fbbe a4e1 693e 5cb8 60bf 6988 963c
000001e0: e0a9 493e 6384 26bf 4163 97bc f418 4b3e
000001f0: 0039 623e e590 aebd ed61 173e d017 afbd
00000200: 6b0a 913e 3bcd 50be 2a0e eb3e 1a41 6a3e
00000210: 01c1 3cbf 4a66 51bf 41d9 103f 7867 cf3d
00000220: 899e 28bd 4cd1 433e debd 643e 7a4a 88be
00000230: 9f8b 5bbe 7cfe 81bd 8a4e 61be 415e b6bd
00000240: 9606 3dbe 280c ae3d 3a0c f7be f4f8 4c3d
00000250: 64ca e83e 6010 923e 6387 3dbd 0ecc 043e
00000260: 2b27 673e 60cd 45be 67fc 3a3e 33e3 0d3e
00000270: e70a 83bf 1696 e93f 5746 d3bf 4cd3 b83e
00000280: 0690 a5bd a41d f8bd 6e38 443b 1aa8 eabc
00000290: 9464 303e 793b aabe e37a dcbd 54a0 0abd
000002a0: 74a3 95bd e2ff 9bbd 7566 7d3e 241a 963c
000002b0: e7e2 f0be b050 35bd 6abb 56be bf03 1c3e
000002c0: 0a9c a13e 32c1 7cbe 5ff8 91be f106 8fbe
000002d0: 5809 3b3e 68da 85be fee5 8d3e b3a0 113d
000002e0: 3187 f9bc 02ae 8abd db36 5bbe 2a6c 87bd
000002f0: ab96 3b3e 014b 32be df32 26bd e224 86bd
00000300: aa62 3ebe 0863 d23d 1496 863d 930e 26bd
00000310: 4eed ba3d bc25 8ebe a817 95bd c374 f13d
00000320: 691d 4c3d 7e5f 86bc ec31 b93e 82f5 c4be
00000330: b123 20be 57da 6e3e 59a4 d4be 7cd4 f03d
00000340: a454 14be bad0 e5bd 3ea5 25be 9c2a c53d
00000350: f03d ea3d 5b46 763c 5aa3 fa3e fcfe 2c3e
00000360: baa2 aa3e 93eb acbd dcb9 1bbe f659 0c3e
00000370: 6704 9dbe eb2e 8abc 6bff d4bd 299b 5d3e
00000380: a105 02be 361c ab3e 2e9c cc3d b6be 483d
00000390: d168 d83d 0001 0f3e 8eb2 503e 714b c83d
000003a0: 0035 7b3d fcc7 da3d 2f44 413e 1bca 08bd
000003b0: 6c55 5f3d d969 163e bf8b 123e b4c1 93bc
000003c0: 022d 83be 9e6c 2b3d 2bb3 ef3e 349a 033f
000003d0: 9120 8cbd 5de5 343e 3b25 ae3e 3f1d a3be
000003e0: 15f9 b63c a12b 9a3e e4d5 60be 8563 303f
000003f0: 359b 783e e354 bebe 4248 89be 2340 0dbd
-0.18958178 0.20854996 -0.24782094 0.2710028 0.10096675 0.112521656 0.37068698 0.11751256
-0.13785104 -0.17722318 0.14803165 -0.26198894 -0.037460096 0.28033298 -0.18295352 -0.04462939
-0.284467 -0.0232249 -0.033896614 -0.44595635 -0.04677566 0.0242923 0.013228011 -0.06466815
-0.059378646 0.12473402 0.07609006 0.05000485 -0.13371864 -0.10292177 -0.036020555 0.07226805
-0.014023211 -0.07333067 -0.26630324 -0.21135159 0.22169106 -0.11270585 0.1312079 0.17103168
-0.0866204 0.3801899 -0.07282204 0.055456404 0.24193627 -0.020736821 0.007595403 0.009436133
0.031991366 0.16433275 0.9086192 -0.048632942 -0.58645594 -0.107639164 0.45198706 0.28146967
0.045770902 -0.3912357 -0.07307975 0.2536748 0.12836954 0.09825779 -0.4145457 0.42529348
0.06573263 -0.055278882 -0.12724468 0.1888298 -0.51388377 0.09646887 0.80551094 -0.3089165
-0.5163341 0.15781416 0.023889463 -0.1762745 -0.11151337 0.52323234 0.23707311 0.13227403
-0.57223773 -0.08165734 0.37004188 0.2906344 -0.15057193 -0.35753492 -0.040829256 0.21944575
-0.012214167 -0.18968011 0.28640366 0.1736501 0.25331432 -0.17934616 0.2766473 0.3562836
0.518371 -1.364395 0.21336937 0.070800915 -0.010785226 -0.21633534 -0.51620317 -0.8885364
0.22126965 -1.2195301 0.13106187 0.44294447 -0.38244426 0.013812503 -0.09439416 0.1439557
-0.21663749 0.08846721 0.38812906 -0.54289174 -0.49137267 0.22839981 -0.8778131 0.018375592
0.19693708 -0.65045756 -0.018479945 0.19833738 0.22092056 -0.0852373 0.1478345 -0.08549464
0.2832826 -0.20390789 0.45909244 0.22876397 -0.73732 -0.81796706 0.56581503 0.10127157
-0.041166816 0.19122809 0.22338054 -0.2661932 -0.2143998 -0.06347367 -0.22002617 -0.08904696
-0.18459544 0.08498412 -0.48251516 0.050042108 0.45466912 0.28528118 -0.046271693 0.12968466
0.22573535 -0.19316626 0.18260346 0.13856201 -1.0237702 1.8248928 -1.6505841 0.36098707
-0.08084111 -0.121150285 0.0029940861 -0.02864461 0.17225868 -0.332485 -0.10765626 -0.033844307
-0.07306567 -0.07617165 0.24746116 0.018323012 -0.47048113 -0.044266403 -0.2096993 0.15235804
0.3156436 -0.24683073 -0.28509805 -0.27934983 0.18265283 -0.26143193 0.27714533 0.035553645
-0.030459972 -0.067714706 -0.21407644 -0.066124275 0.18319194 -0.17411424 -0.04057586 -0.065500036
-0.18592325 0.10272795 0.06571594 -0.040541243 0.091272935 -0.27763164 -0.07279903 0.11789849
0.049832735 -0.016402956 0.361709 -0.38468558 -0.15638615 0.23325478 -0.41531637 0.11759278
-0.14485413 -0.11221452 -0.16176316 0.09627268 0.11437595 0.0150314225 0.48952752 0.16894144
0.33327276 -0.0844337 -0.15207618 0.13706192 -0.3066742 -0.016868075 -0.104002796 0.2164122
-0.1269746 0.3341996 0.099907264 0.04901 0.10566867 0.13965225 0.20380613 0.09780014
0.06132984 0.10682675 0.18873666 -0.033395868 0.054524824 0.14688815 0.14311121 -0.0180367
-0.25620276 0.041851632 0.46816382 0.5140717 -0.06842149 0.1766562 0.3401278 -0.3185825
0.022335568 0.3011141 -0.21956593 0.68901855 0.24277957 -0.37174138 -0.2681294 -0.034484994

fc1.bias f4 [50]
00000000: 22c8 273f f16e e1be 5347 98be 5872 a7be
00000010: fedb 423e 0fbe 05be 9a77 c9be befc fd3d
00000020: db68 41be 1ef0 93bd 7520 67be d33d 9fbe
00000030: cb3d 00be 81ed 2dbf 4dbe 8c3d c479 21be
00000040: 3cdf c53e 9c44 0dbf 12e9 4dbe 0cca b7bd
00000050: 987d 76bd ef40 c6be 6606 68bd 667d 68bc
00000060: 06ee b83e 5d01 56be 96de 413f 367c 13bf
00000070: afb3 15be 1a9c 29be 7d47 c3bd b781 54be
00000080: 95c6 c6be 1d1b 4bbe b28a 3c3e 467f 8e3e
00000090: 5f7a b4be 953c a2bd 4949 d83d 8fcc 28be
000000a0: 8df8 3b3e a987 8ebe 8b2f 053e 2f03 fabe
000000b0: d9fe da3d a01d 2abf f348 583d 890e bb3e
000000c0: 9a2e aebe 94c3 f7b9
0.65539753 -0.44029954 -0.29741916 -0.32704425 0.19029233 -0.13060783 -0.3934906 0.12401722
-0.18887655 -0.07223533 -0.22570975 -0.31101856 -0.12523572 -0.6794053 0.068722345 -0.15769106
0.38646877 -0.55182815 -0.2010844 -0.08974084 -0.06017837 -0.38721415 -0.056646727 -0.014190054
0.36119097 -0.20898958 0.75730264 -0.57611406 -0.14619325 -0.16563454 -0.0953512 -0.20752607
-0.3882338 -0.19834562 0.18412283 0.27831477 -0.35249612 -0.07921711 0.10560853 -0.16484283
0.18356533 -0.27837875 0.13006417 -0.48830554 0.106931396 -0.66451454 0.052803945 0.36534527
-0.3401993 -0.00047257228

fc2.weight f4 [50, 50]
00000000: b363 193e a1c3 b83e 5634 21bd c68e d3bd
00000010: 4e00 583d 5ebd d9bc 1ed9 e43d 3fe1 46be
00000020: daae 01be 0923 2a3d 87c5 5a3e 6519 583d
00000030: 920f 4f3e 01c4 86bd 28c3 c5bd 6acf d53d
00000040: 68eb c73e 22bb d3bd d9c4 383e bd93 d93d
00000050: 9b2c 183e e401 ac3c 2710 97bd 7bce 493d
00000060: ef99 eb3c 261d 51be 3902 653e be1a 03bd
00000070: 9d2d 2fbd 2fc1 8c3d 87d6 97bd b2c7 e0bb
00000080: 7fac 993d c759 41be 3d2d 813e 221d 9a3c
00000090: 67d3 fd3d 82f8 34be b5a0 37bd c6a3 f4bd
000000a0: e22d aebd a7c1 f73d 7ba0 e0bc c18d 07bd
000000b0: cd29 64bd 6107 56bd 0a47 343e 473d 8ebc
000000c0: 283e e73d 44e4 84bd 2310 13be 776a 9e3e
000000d0: 8edf 9ebe 48e9 6dbe 0dab 60be 3224 ccbe
000000e0: bbf3 dabc b3f5 b73e 32e2 ac3d 3459 eb3c
000000f0: 38dd 943d 2a67 443d 9990 07be c09b 91bd
00000100: bb4f 1e3e 9efe 7dbd 990c 48be f80b 203d
00000110: 7e7f 2dbe 518c ad3c f118 d2bd 47cb 003f
00000120: aaae c6bd fd1f 5fb9 b2e2 2c3d c7e5 493e
00000130: 8518 3c3b dfdf 88bc b33d b3be 77fc e6bd
00000140: 318e e3bc 69e9 36bd 6e17 e13c e954 0f3e
00000150: 0154 063f 9790 d83e fd64 923e c4e0 9bbd
00000160: 769c 65bd 25f0 3b3d 258e 89bc c773 7fbd
00000170: 8125 cd3d 7641 07bd 555a 8dbe b558 8b3d
00000180: fd1d 33bb a937 cc3c e553 453e 0801 273d
00000190: 9296 203e ffbf 923d 3021 a53e 00a5 8fbe
000001a0: 7ac8 dd3e 70a7 34bd 9f72 173e d66a 783e
000001b0: 0ffa dc3a 81ab 2c3e ddd8 da3d acce 213e
000001c0: d5ac 033d 8bf6 193f e912 b9bd 0ecf 3cbd
000001d0: d37c 0dbe c63b 343d 1fb1 903d 533a 153e
000001e0: 0429 383d 69ab ef3e d27d 2f3e 86d5 a1bd
000001f0: 9991 8cbe 991b fe3d 1161 dfbd 167b f1bc
00000200: 0ed6 a8bd d0d9 77bd e022 d63e dde6 3d3e
00000210: 8f39 afbc 550a 07bd f401 31bb 8c1c 8b3e
00000220: f1ea 6bbe 332f 803e da44 01bf df4c 023e
00000230: e200 b7bc c9ca b8be fb6b d43e 918e 2c3d
00000240: da0a 0cbd 997e f2bd e111 92bb a742 a83e
00000250: 317e 7bbe 1765 0a3e 5a19 b6be 266b 4ebc
00000260: c9af de3c 14e8 543e 9003 97be a99b 2bbe
00000270: 89b3 c1bd 8d48 a13b f74b 82be 214d 2bbd
00000280: fd9a e0bd 4325 29be 73c4 a13d 78dc b2be
00000290: 50f0 203c d62e f93d c830 94bd e851 b5be
000002a0: 6383 3a3c 936f 66be 8fde 9bbe a90c 11be
000002b0: c898 a93d 2825 17be 72fa c1bd 1a08 373e
000002c0: 67fc b2be 28ab 05bf 4281 55be fe5e 9bbe
000002d0: 8ae7 99bd fbf5 96be a697 b0be 8579 00be
000002e0: 290b 75be dca6 3fbe 52de 5fbd 4bf1 40be
000002f0: 3fd3 b4be 810b eb3d bd03 2ebf 0801 9f3c
00000300: d9ae bcbe 4dd2 66be 47a0 5cbe 1a4d 9fbe
00000310: f242 66be 479a 07bf 3207 c73c 6054 5b3d
00000320: 8f1c f6bd 6825 4fbd 5a7f edbd 31c1 9dbd
00000330: 8c7d 82bc 60d9 1abd e692 c7bd db48 80bd
00000340: 38c0 e5bd 6118 99bc e8a3 32be bc4a 0f3d
00000350: 5296 e5bd c9dc d33b a920 7abe e22f 193d
00000360: d282 43bc bff1 f7bd 6e9d 1cbe 4007 0bbe
00000370: 5810 773b 28bc 443d 5e87 0bbd 8829 c53c
00000380: 593b 683d 6038 9f3d 5e02 a3bd 4012 0bbe
00000390: 6d66 0fbd a711 ffbd 1cd4 c1bd 5be3 f7bc
000003a0: f54d 38be 9701 adbd cae5 45be 7d93 71bd
000003b0: 5da3 29be 1a7a ad3c be27 e33b b200 a0bc
000003c0: 0f7e 2bbe 65c0 3dbd 611e b03d bfd5 f2bc
000003d0: 00f3 1abe 6d38 24be 94db 47be 1a3a 3a3d
000003e0: 711e e93c a731 5abe 818a 14be 126a 2e3d
000003f0: e5a8 0d3d b924 a83e 97aa 5a3d 71e8 f53c
0.14979438 0.36086753 -0.039356552 -0.10329966 0.052734666 -0.026579555 0.11174224 -0.19421862
-0.12664357 0.04153732 0.21364413 0.052758593 0.20220783 -0.065803535 -0.09656364 0.10439952
0.39046788 -0.10338427 0.18043841 0.10623882 0.14860766 0.020996995 -0.07376128 0.04926918
0.028759925 -0.20421275 0.22364129 -0.032007925 -0.04276811 0.06872784 -0.07413965 -0.006859743
0.07503604 -0.18881904 0.25229827 0.01881272 0.123938374 -0.17672923 -0.044830997 -0.119453
-0.08504845 0.12097483 -0.027420273 -0.03309417 -0.055703927 -0.05225313 0.17605224 -0.017363204
0.11291152 -0.06488851 -0.14361624 0.309406 -0.31029934 -0.23233521 -0.2194025 -0.39871365
-0.026727548 0.3592964 0.08441581 0.028729059 0.07268757 0.047949947 -0.13238753 -0.07109785
0.15460102 -0.0620104 -0.19536056 0.039073914 -0.16943166 0.021185072 -0.102586634 0.50310177
-0.09701283 -0.00021278854 0.04220838 0.1971656 0.0028701138 -0.016708313 -0.3500801 -0.112786226
-0.027777763 -0.04465619 0.027476992 0.13997234 0.5247193 0.42297813 0.28592673 -0.0761123
-0.056057416 0.045883317 -0.016791413 -0.062366273 0.10016919 -0.033021413 -0.2760798 0.06804029
-0.0027331107 0.024928885 0.19270284 0.040772468 0.15682438 0.071655266 0.32251883 -0.28055573
0.43317014 -0.044104993 0.14789818 0.24259505 0.0016859191 0.16862299 0.10685895 0.15801495
0.032147247 0.6014182 -0.0903681 -0.0460959 -0.13817148 0.044002317 0.07065033 0.1457303
0.04496099 0.46810463 0.1713784 -0.079020545 -0.27454832 0.124076076 -0.10907186 -0.029477637
-0.08243953 -0.060510457 0.41823483 0.18545099 -0.02138975 -0.032968838 -0.002700922 0.27170217
-0.23038842 0.2503601 -0.50495684 0.12724636 -0.022339288 -0.36092213 0.41488633 0.04212815
-0.034190036 -0.11840553 -0.0044576977 0.32863352 -0.24559857 0.13515125 -0.35566217 -0.012598788
0.02718343 0.20791656 -0.29494905 -0.16758598 -0.09458072 0.004921979 -0.25448582 -0.041821603
-0.10967062 -0.1651812 0.07898798 -0.3493383 0.00982292 0.12167136 -0.07235867 -0.35414052
0.011383864 -0.225035 -0.30443236 -0.14164986 0.08281094 -0.14760268 -0.09471597 0.17874184
-0.34958193 -0.5221429 -0.20850089 -0.3034591 -0.07514866 -0.29484543 -0.344907 -0.12546356
-0.23930039 -0.18715996 -0.05465538 -0.18842046 -0.35317418 0.114768036 -0.67974454 0.019409671
-0.36852148 -0.22541161 -0.21545516 -0.3111351 -0.22486475 -0.52969784 0.024295423 0.053547263
-0.12017166 -0.050572783 -0.11596556 -0.07702864 -0.015929006 -0.03780496 -0.097448155 -0.06263896
-0.112183034 -0.018688383 -0.17445338 0.03498338 -0.11210312 0.0064655286 -0.24426521 0.03739918
-0.011933045 -0.12106656 -0.1529443 -0.13576984 0.003769895 0.048031002 -0.034064643 0.024067655
0.056697223 0.077744246 -0.07959436 -0.1358118 -0.03500979 -0.12454539 -0.09464285 -0.030259779
-0.17998488 -0.08447569 -0.19325939 -0.058978546 -0.16566224 0.021176387 0.006932228 -0.019531582
-0.16747306 -0.04632606 0.08599544 -0.029642938 -0.1513176 -0.1603715 -0.19517356 0.045465566
0.028456898 -0.21308003 -0.1450596 0.042581625 0.0345849 0.32840517 0.053385343 0.030018063

fc2.bias f4 [50]
00000000: 0fb7 013f bd8c b5be 732b 50be c919 f5be
00000010: 6ee3 2bbe 4a21 b03e 2869 3abd c994 06be
00000020: b6c0 e6bd db03 2dbe 2531 653d b215 de3e
00000030: f1b7 b3bd 5867 f7bd f4e4 553c 7248 c4bd
00000040: 80ab af3d 2360 b63e 49bb 97be fe09 7fbe
00000050: af6a 0cbd 4bbf bebc 55ac 31be 4776 74be
00000060: 3743 df3c 0c02 8ebd e634 99be 008d 953e
00000070: bd75 5dbd 079f 81be 73ab c43c 97f6 b03e
00000080: 085d ec3c 2e39 1dbe 2224 30be 4c0d 9dbc
00000090: 1339 8e3e 8dda 39be d5ca c2bd 0842 e03e
000000a0: aeb4 183d 4893 90bd c247 58be faba 2ebe
000000b0: d8da aabe 92aa 08be b8f0 af3d 00ce cb3c
000000c0: 83d0 b0be 3722 8fbd
0.5066995 -0.35458937 -0.20329075 -0.47871235 -0.16785976 0.34400398 -0.04551044 -0.13142695
-0.112672254 -0.16896002 0.05595507 0.43375927 -0.087753184 -0.12080258 0.013055075 -0.0958413
0.08577633 0.35620221 -0.29635075 -0.24906155 -0.03428143 -0.023284575 -0.17350896 -0.23873244
0.02725373 -0.06933984 -0.2992317 0.29209137 -0.054067362 -0.2531664 0.024007535 0.34563133
0.028852955 -0.15353844 -0.17201284 -0.01917138 0.2777792 -0.18149777 -0.095113434 0.43800378
0.037281685 -0.07059342 -0.21121123 -0.17063513 -0.3337009 -0.13346317 0.08590835 0.024878502
-0.34534082 -0.06988948

fc3.weight f4 [10, 50]
00000000: 264b 493e 0506 b93c 4ff8 fc3d 581d dfbc
00000010: 7526 083d b560 5e3d af7b 513d b45c cebd
00000020: 5120 75bd ff02 88be ba02 773d 449d 183e
00000030: 45f5 e73d 217a 233e 9b62 4d3e 82a9 dc3d
00000040: ed98 bebd e615 e03d 8299 81bd 161b 203d
00000050: ed4d 663e a597 153d 5fba 89bd 9b71 41be
00000060: af93 92bd 7dae 403e f597 94bd 225e ddbd
00000070: f7d2 243e a38b 80be eb26 7e3c b891 093e
00000080: 3338 973d 6c8f 9a3d c7e9 4f3d 8b6c d73d
00000090: 6387 683d 674e 053e 8fae 7d3d a988 163e
000000a0: 2ba4 613b a122 c53d 64a2 193d 57b3 473e
000000b0: 0da9 09be f91b 213e a063 b83d a0ee 463d
000000c0: 6cba b7bc e284 ad3d ef49 c23d 78a1 28bd
000000d0: 4276 a43e 7919 063e 0699 053e 4260 763e
000000e0: c172 11be f892 b03e edf9 69bd 6928 153e
000000f0: 7731 083e 5ca7 b63d 2ad1 86b9 ae19 623d
00000100: 6618 8f3d bdbf 4ebd 0b20 053e 917f 433e
00000110: bb79 d93d 7049 6abe 94ff 41bd d927 5a3d
00000120: b719 08bd 4eb2 46be 6645 9cbd 72c3 7c3e
00000130: 782b 813e 6c85 443e a648 1cbe 6411 0d3e
00000140: 7fa7 c33c 0fb5 30be 8707 9cbd dd57 98bd
00000150: 493f a4bd e13b 883d 0559 d13c 94cd 9bbd
00000160: a098 453c 1ce3 203e a257 6fbd 4bf7 a4bd
00000170: 22fe 113e e1eb 3f3e 0dd3 4d3e e29b 31bd
00000180: d00a 303d 5d03 c0bd 6303 30be 9cba ebbd
00000190: 3fae 603d 2e07 dbbc e085 f03d 9405 92be
000001a0: b764 0d3e 9cbb 343d 92cb cc3d 2817 1a3e
000001b0: 0baf 3bbe d7aa 2a3e 0d9b ac3e 6675 d73d
000001c0: e2e6 03be b89a b03d 8206 043b fb3d b8bc
000001d0: 5eed 213e bcd4 cd3d aaa0 4b3e 0272 0fbd
000001e0: 97cc 82bd 15d6 4ebd b41c 1fbc bae3 1d3b
000001f0: 1ce0 1fbd bf44 2b3e 0f24 803d 24b4 823e
00000200: 90a2 cc3c 43b1 76be fedb 213e 3bd2 ae3e
00000210: 4142 0abc 5f60 543d b096 2b3e f794 a0bd
00000220: b787 02be 1ee0 c93c 3a8e 573d ec23 683e
00000230: 4c45 adbd 9e12 b93d 9070 a0bd f463 8d3e
00000240: b025 763e 91e5 563d 87dd 6cbc fc4a 023d
00000250: 2716 3c3e 89d8 f6bc 4c88 c53b 9a1f 613e
00000260: f023 c93d b806 c63d a083 fa3d ab84 613e
00000270: fb75 c93d 530a 8cbe 3457 6ebd 6842 2b3e
00000280: 9960 323e e605 92be 9427 4ebd ffa7 71bc
00000290: ad3d c4ba a3fa 90bc 2aa7 1a3e 5c63 a0bd
000002a0: 07cc e4bb e973 c43d 5ca0 4d3d 6e79 4c3e
000002b0: 883b b6bd 8074 963d d1a2 58bc 8f65 383e
000002c0: 4a14 193c 01c1 a13d 5168 283d 14e7 4bbe
000002d0: 3d3d 673a 3151 a63d 816c 6f3c 0662 123e
000002e0: ddc5 0a3e 7d07 c43c 6cd2 753e 5713 d73d
000002f0: edc4 eebd f5c8 91be 7d85 b0bc c0ad b63b
00000300: dc04 9ebc 31b1 3a3e b04b 8bbc 52ee 863d
00000310: 31f2 2a3e 9b34 40be 7f66 373d 2b32 70bd
00000320: c377 56bd 11e6 f33d 593a 203e 8586 303c
00000330: 033a 913d 4a8d 23be 01f4 cdbd bbe3 6b3d
00000340: ccff 1dbc 2b9b 93bd d013 583e 1cc4 683e
00000350: 8e42 483d 4a2c 913b 5490 27be 488a 17be
00000360: bee9 953e bb2e 303d 2dc2 033d 6939 983d
00000370: 3463 373e d0a3 a53d d9a3 363e 310a 013c
00000380: b9b8 073e 14d9 623e 1489 b2ba 24ee e93d
00000390: 348b 6d3d 847d 533d 30df 0d3e ccfb fb3b
000003a0: ae58 a03d e817 693d 684f 0f3e 4965 263d
000003b0: 30ae 4e3e c35e d33d f6be 9abd 1e01 173e
000003c0: f44a c63d be8e e03d 64be 063e 267d 1d3e
000003d0: 0178 183e 24b3 14be c7a7 273d c247 e5bd
000003e0: 6fc3 063e 021e 09bd 0674 863d 35b7 b73d
000003f0: 2b9c 173e eb27 4bbb 5380 443b 3c3d 363e
0.19657573 0.022585878 0.123520486 -0.027235672 0.0332398 0.054291446 0.051143344 -0.100762755
-0.059845272 -0.26564786 0.060305335 0.14903742 0.11326078 0.15964557 0.20057146 0.107745185
-0.09306512 0.10941677 -0.063281074 0.03908833 0.22490664 0.036521573 -0.067250006 -0.18890993
-0.07157075 0.18816562 -0.07255546 -0.1080897 0.16096102 -0.25106534 0.015512208 0.13434494
0.07383766 0.07546887 0.050760057 0.1051875 0.05676974 0.1301819 0.06193405 0.14700569
0.0034430127 0.096257456 0.037508383 0.19502006 -0.13443394 0.15733327 0.09003377 0.048567414
-0.02242776 0.08472611 0.09486758 -0.041169614 0.32121474 0.13095655 0.13046655 0.24060157
-0.14203931 0.34487128 -0.057123113 0.14566197 0.1330012 0.0891864 -0.0002571431 0.05520027
0.069870755 -0.050475825 0.13000505 0.19091631 0.10618921 -0.22879577 -0.04736288 0.053260658
-0.03322765 -0.19403955 -0.07630424 0.24683931 0.25228477 0.19191521 -0.15262088 0.13776165
0.02388358 -0.17256568 -0.07618623 -0.074386336 -0.08019883 0.06652046 0.025555143 -0.0760757
0.012060314 0.15711635 -0.058433183 -0.0805498 0.142571 0.18742324 0.2010004 -0.043361552
0.04297906 -0.093756415 -0.17188792 -0.11510202 0.054853674 -0.026736822 0.11744285 -0.2851988
0.13807951 0.04412423 0.099997655 0.15047896 -0.18328492 0.16666733 0.33712044 0.10520439
-0.12881044 0.0862326 0.002014548 -0.022490492 0.15813205 0.100503415 0.19885507 -0.035020836
-0.06386679 -0.050497133 -0.009711433 0.0024092034 -0.039032087 0.16725443 0.06256878 0.2552806
0.02497986 -0.24091057 0.15806577 0.34144768 -0.008438648 0.05184972 0.16756701 -0.07840913
-0.12747084 0.024643 0.052625872 0.22669953 -0.08460483 0.09036754 -0.078339696 0.2761532
0.24037814 0.052465025 -0.014457113 0.031809792 0.18367825 -0.030132549 0.0060282107 0.21984711
0.09821308 0.0966925 0.12232137 0.22023265 0.09836956 -0.27351627 -0.058188632 0.1672455
0.17419662 -0.28520125 -0.050330713 -0.014749526 -0.0014971994 -0.017697638 0.1510283 -0.07831451
-0.00698233 0.095924206 0.05020176 0.19968197 -0.088980734 0.07346439 -0.013222412 0.18007492
0.009343216 0.07898141 0.04111511 -0.19912368 0.0008821076 0.08120955 0.014613272 0.14295205
0.13552041 0.023929352 0.24006051 0.10501736 -0.11658654 -0.2847363 -0.021548027 0.005574912
-0.019289427 0.18231656 -0.017003864 0.06588425 0.16693951 -0.18770067 0.044775482 -0.058641594
-0.052360307 0.11909116 0.15647258 0.010774259 0.07091143 -0.15971866 -0.10056306 0.057590228
-0.009643506 -0.0720733 0.21101308 0.2273106 0.048891596 0.0044303285 -0.1636365 -0.14798844
0.29279894 0.043013316 0.032167602 0.07432825 0.17908937 0.080878854 0.1783594 0.007875965
0.1325406 0.22153121 -0.0013621175 0.11422375 0.057994083 0.051633373 0.1385467 0.0076899286
0.07829414 0.056907564 0.13995135 0.040623937 0.20183635 0.10320809 -0.07555954 0.1474652
0.09682265 0.10964726 0.13158566 0.15379772 0.14889528 -0.14521462 0.04093149 -0.11195327
0.1316049 -0.033475883 0.065650985 0.08970491 0.14805667 -0.0030999135 0.0029983714 0.17796797

fc3.bias f4 [10]
00000000: e67a 4fbe bb9b d13d b004 60be 4b89 9139
00000010: 3cbd f83c 645d 993e cf79 ea3d b842 7bb9
00000020: 589f 6e3e 186f 1c3e
-0.20261726 0.10234781 -0.21876788 0.00027758846 0.030363671 0.29954064 0.114490144 -0.0002396208
0.23302972 0.15276754
